…
wandb: Run data is saved locally in /scratch/afz225/nlp_assignment2/NLP702-Assignment2/wandb/run-20240314_004411-copikexx
wandb: Run `wandb offline` to turn off syncing.
wandb: Syncing run sage-bush-221
wandb: â­ï¸ View project at https://wandb.ai/afz225/huggingface
wandb: ðŸš€ View run at https://wandb.ai/afz225/huggingface/runs/copikexx
******************** Finetuning Using LoRA ********************
PeftModelForSequenceClassification(
  (base_model): LoraModel(
    (model): BertForSequenceClassification(
      (bert): BertModel(
        (embeddings): BertEmbeddings(
          (word_embeddings): Embedding(30522, 1024, padding_idx=0)
          (position_embeddings): Embedding(512, 1024)
          (token_type_embeddings): Embedding(2, 1024)
          (LayerNorm): LayerNorm((1024,), eps=1e-12, elementwise_affine=True)
          (dropout): Dropout(p=0.1, inplace=False)
        )
        (encoder): BertEncoder(
          (layer): ModuleList(
            (0-23): 24 x BertLayer(
              (attention): BertAttention(
                (self): BertSelfAttention(
                  (query): lora.Linear(
                    (base_layer): Linear(in_features=1024, out_features=1024, bias=True)
                    (lora_dropout): ModuleDict(
                      (default): Dropout(p=0.1, inplace=False)
                    )
                    (lora_A): ModuleDict(
                      (default): Linear(in_features=1024, out_features=64, bias=False)
                    )
                    (lora_B): ModuleDict(
                      (default): Linear(in_features=64, out_features=1024, bias=False)
                    )
                    (lora_embedding_A): ParameterDict()
                    (lora_embedding_B): ParameterDict()
                  )
                  (key): lora.Linear(
                    (base_layer): Linear(in_features=1024, out_features=1024, bias=True)
                    (lora_dropout): ModuleDict(
                      (default): Dropout(p=0.1, inplace=False)
                    )
                    (lora_A): ModuleDict(
                      (default): Linear(in_features=1024, out_features=64, bias=False)
                    )
                    (lora_B): ModuleDict(
                      (default): Linear(in_features=64, out_features=1024, bias=False)
                    )
                    (lora_embedding_A): ParameterDict()
                    (lora_embedding_B): ParameterDict()
                  )
                  (value): lora.Linear(
                    (base_layer): Linear(in_features=1024, out_features=1024, bias=True)
                    (lora_dropout): ModuleDict(
                      (default): Dropout(p=0.1, inplace=False)
                    )
                    (lora_A): ModuleDict(
                      (default): Linear(in_features=1024, out_features=64, bias=False)
                    )
                    (lora_B): ModuleDict(
                      (default): Linear(in_features=64, out_features=1024, bias=False)
                    )
                    (lora_embedding_A): ParameterDict()
                    (lora_embedding_B): ParameterDict()
                  )
                  (dropout): Dropout(p=0.1, inplace=False)
                )
                (output): BertSelfOutput(
                  (dense): lora.Linear(
                    (base_layer): Linear(in_features=1024, out_features=1024, bias=True)
                    (lora_dropout): ModuleDict(
                      (default): Dropout(p=0.1, inplace=False)
                    )
                    (lora_A): ModuleDict(
                      (default): Linear(in_features=1024, out_features=64, bias=False)
                    )
                    (lora_B): ModuleDict(
                      (default): Linear(in_features=64, out_features=1024, bias=False)
                    )
                    (lora_embedding_A): ParameterDict()
                    (lora_embedding_B): ParameterDict()
                  )
                  (LayerNorm): LayerNorm((1024,), eps=1e-12, elementwise_affine=True)
                  (dropout): Dropout(p=0.1, inplace=False)
                )
              )
              (intermediate): BertIntermediate(
                (dense): lora.Linear(
                  (base_layer): Linear(in_features=1024, out_features=4096, bias=True)
                  (lora_dropout): ModuleDict(
                    (default): Dropout(p=0.1, inplace=False)
                  )
                  (lora_A): ModuleDict(
                    (default): Linear(in_features=1024, out_features=64, bias=False)
                  )
                  (lora_B): ModuleDict(
                    (default): Linear(in_features=64, out_features=4096, bias=False)
                  )
                  (lora_embedding_A): ParameterDict()
                  (lora_embedding_B): ParameterDict()
                )
                (intermediate_act_fn): GELUActivation()
              )
              (output): BertOutput(
                (dense): lora.Linear(
                  (base_layer): Linear(in_features=4096, out_features=1024, bias=True)
                  (lora_dropout): ModuleDict(
                    (default): Dropout(p=0.1, inplace=False)
                  )
                  (lora_A): ModuleDict(
                    (default): Linear(in_features=4096, out_features=64, bias=False)
                  )
                  (lora_B): ModuleDict(
                    (default): Linear(in_features=64, out_features=1024, bias=False)
                  )
                  (lora_embedding_A): ParameterDict()
                  (lora_embedding_B): ParameterDict()
                )
                (LayerNorm): LayerNorm((1024,), eps=1e-12, elementwise_affine=True)
                (dropout): Dropout(p=0.1, inplace=False)
              )
            )
          )
        )
        (pooler): BertPooler(
          (dense): lora.Linear(
            (base_layer): Linear(in_features=1024, out_features=1024, bias=True)
            (lora_dropout): ModuleDict(
              (default): Dropout(p=0.1, inplace=False)
            )
            (lora_A): ModuleDict(
              (default): Linear(in_features=1024, out_features=64, bias=False)
            )
            (lora_B): ModuleDict(
              (default): Linear(in_features=64, out_features=1024, bias=False)
            )
            (lora_embedding_A): ParameterDict()
            (lora_embedding_B): ParameterDict()
          )
          (activation): Tanh()
        )
      )
      (dropout): Dropout(p=0.1, inplace=False)
      (classifier): ModulesToSaveWrapper(
        (original_module): Linear(in_features=1024, out_features=60, bias=True)
        (modules_to_save): ModuleDict(
          (default): Linear(in_features=1024, out_features=60, bias=True)
        )
      )
    )
  )
)
Model Training Parameters:
trainable params: 28504124 || all params: 363707512 || trainable%: 7.837100708549567
  0%|          | 0/2160 [00:00<?, ?it/s]  0%|          | 1/2160 [00:03<1:49:23,  3.04s/it]                                                    0%|          | 1/2160 [00:03<1:49:23,  3.04s/it]  0%|          |
…
