…
wandb:  $ pip install wandb --upgrade
wandb: Tracking run with wandb version 0.16.3
wandb: Run data is saved locally in /scratch/afz225/nlp_assignment2/NLP702-Assignment2/wandb/run-20240313_224042-k090wtmf
wandb: Run `wandb offline` to turn off syncing.
wandb: Syncing run absurd-snowball-216
wandb: â­ï¸ View project at https://wandb.ai/afz225/huggingface
wandb: ðŸš€ View run at https://wandb.ai/afz225/huggingface/runs/k090wtmf
******************** Normal Finetuning  ********************
BertForSequenceClassification(
  (bert): BertModel(
    (embeddings): BertEmbeddings(
      (word_embeddings): Embedding(30522, 768, padding_idx=0)
      (position_embeddings): Embedding(512, 768)
      (token_type_embeddings): Embedding(2, 768)
      (LayerNorm): LayerNorm((768,), eps=1e-12, elementwise_affine=True)
      (dropout): Dropout(p=0.1, inplace=False)
    )
    (encoder): BertEncoder(
      (layer): ModuleList(
        (0-11): 12 x BertLayer(
          (attention): BertAttention(
            (self): BertSelfAttention(
              (query): Linear(in_features=768, out_features=768, bias=True)
              (key): Linear(in_features=768, out_features=768, bias=True)
              (value): Linear(in_features=768, out_features=768, bias=True)
              (dropout): Dropout(p=0.1, inplace=False)
            )
            (output): BertSelfOutput(
              (dense): Linear(in_features=768, out_features=768, bias=True)
              (LayerNorm): LayerNorm((768,), eps=1e-12, elementwise_affine=True)
              (dropout): Dropout(p=0.1, inplace=False)
            )
          )
          (intermediate): BertIntermediate(
            (dense): Linear(in_features=768, out_features=3072, bias=True)
            (intermediate_act_fn): GELUActivation()
          )
          (output): BertOutput(
            (dense): Linear(in_features=3072, out_features=768, bias=True)
            (LayerNorm): LayerNorm((768,), eps=1e-12, elementwise_affine=True)
            (dropout): Dropout(p=0.1, inplace=False)
          )
        )
      )
    )
    (pooler): BertPooler(
      (dense): Linear(in_features=768, out_features=768, bias=True)
      (activation): Tanh()
    )
  )
  (dropout): Dropout(p=0.1, inplace=False)
  (classifier): Linear(in_features=768, out_features=60, bias=True)
)
  0%|          | 0/2160 [00:00<?, ?it/s]  0%|          | 1/2160 [00:01<59:18,  1.65s/it]                                                  0%|          | 1/2160 [00:01<59:18,  1.65s/it]  0%|          | 2/2160 [00:02<41:06,  1.14s/it]  0%|          | 3/2160 [00:03<34:53,  1.03it/s]  0%|          | 4/2160 [00:03<31:54,  1.13it/s]  0%|          |
…
