…
num_hidden_layers 12
num_attention_heads 12
intermediate_size 3072
hidden_act gelu
stu_hidden_size None
stu_num_hidden_layers None
stu_num_attention_heads None
stu_intermediate_size None
stu_hidden_act gelu
lora_alpha 16
lora_dropout 0.1
lora_r 64
bias none
task_type SEQ_CLS
lora_target_modules ['query', 'key', 'value', 'dense']
Loading dataset
******************** Finetuning Using LoRA ********************
PeftModelForSequenceClassification(
  (base_model): LoraModel(
    (model): BertForSequenceClassification(
      (bert): BertModel(
        (embeddings): BertEmbeddings(
          (word_embeddings): Embedding(30522, 768, padding_idx=0)
          (position_embeddings): Embedding(512, 768)
          (token_type_embeddings): Embedding(2, 768)
          (LayerNorm): LayerNorm((768,), eps=1e-12, elementwise_affine=True)
          (dropout): Dropout(p=0.1, inplace=False)
        )
        (encoder): BertEncoder(
          (layer): ModuleList(
            (0-11): 12 x BertLayer(
              (attention): BertAttention(
                (self): BertSelfAttention(
                  (query): lora.Linear(
                    (base_layer): Linear(in_features=768, out_features=768, bias=True)
                    (lora_dropout): ModuleDict(
                      (default): Dropout(p=0.1, inplace=False)
                    )
                    (lora_A): ModuleDict(
                      (default): Linear(in_features=768, out_features=64, bias=False)
                    )
                    (lora_B): ModuleDict(
                      (default): Linear(in_features=64, out_features=768, bias=False)
                    )
                    (lora_embedding_A): ParameterDict()
                    (lora_embedding_B): ParameterDict()
                  )
                  (key): lora.Linear(
                    (base_layer): Linear(in_features=768, out_features=768, bias=True)
                    (lora_dropout): ModuleDict(
                      (default): Dropout(p=0.1, inplace=False)
                    )
                    (lora_A): ModuleDict(
                      (default): Linear(in_features=768, out_features=64, bias=False)
                    )
                    (lora_B): ModuleDict(
                      (default): Linear(in_features=64, out_features=768, bias=False)
                    )
                    (lora_embedding_A): ParameterDict()
                    (lora_embedding_B): ParameterDict()
                  )
                  (value): lora.Linear(
                    (base_layer): Linear(in_features=768, out_features=768, bias=True)
                    (lora_dropout): ModuleDict(
                      (default): Dropout(p=0.1, inplace=False)
                    )
                    (lora_A): ModuleDict(
                      (default): Linear(in_features=768, out_features=64, bias=False)
                    )
                    (lora_B): ModuleDict(
                      (default): Linear(in_features=64, out_features=768, bias=False)
                    )
                    (lora_embedding_A): ParameterDict()
                    (lora_embedding_B): ParameterDict()
                  )
                  (dropout): Dropout(p=0.1, inplace=False)
                )
                (output): BertSelfOutput(
                  (dense): lora.Linear(
                    (base_layer): Linear(in_features=768, out_features=768, bias=True)
                    (lora_dropout): ModuleDict(
                      (default): Dropout(p=0.1, inplace=False)
                    )
                    (lora_A): ModuleDict(
                      (default): Linear(in_features=768, out_features=64, bias=False)
                    )
                    (lora_B): ModuleDict(
                      (default): Linear(in_features=64, out_features=768, bias=False)
                    )
                    (lora_embedding_A): ParameterDict()
                    (lora_embedding_B): ParameterDict()
                  )
                  (LayerNorm): LayerNorm((768,), eps=1e-12, elementwise_affine=True)
                  (dropout): Dropout(p=0.1, inplace=False)
                )
              )
              (intermediate): BertIntermediate(
                (dense): lora.Linear(
                  (base_layer): Linear(in_features=768, out_features=3072, bias=True)
                  (lora_dropout): ModuleDict(
                    (default): Dropout(p=0.1, inplace=False)
                  )
                  (lora_A): ModuleDict(
                    (default): Linear(in_features=768, out_features=64, bias=False)
                  )
                  (lora_B): ModuleDict(
                    (default): Linear(in_features=64, out_features=3072, bias=False)
                  )
                  (lora_embedding_A): ParameterDict()
                  (lora_embedding_B): ParameterDict()
                )
                (intermediate_act_fn): GELUActivation()
              )
              (output): BertOutput(
                (dense): lora.Linear(
                  (base_layer): Linear(in_features=3072, out_features=768, bias=True)
                  (lora_dropout): ModuleDict(
                    (default): Dropout(p=0.1, inplace=False)
                  )
                  (lora_A): ModuleDict(
                    (default): Linear(in_features=3072, out_features=64, bias=False)
                  )
                  (lora_B): ModuleDict(
                    (default): Linear(in_features=64, out_features=768, bias=False)
                  )
                  (lora_embedding_A): ParameterDict()
                  (lora_embedding_B): ParameterDict()
                )
                (LayerNorm): LayerNorm((768,), eps=1e-12, elementwise_affine=True)
                (dropout): Dropout(p=0.1, inplace=False)
              )
            )
          )
        )
        (pooler): BertPooler(
          (dense): lora.Linear(
            (base_layer): Linear(in_features=768, out_features=768, bias=True)
            (lora_dropout): ModuleDict(
              (default): Dropout(p=0.1, inplace=False)
            )
            (lora_A): ModuleDict(
              (default): Linear(in_features=768, out_features=64, bias=False)
            )
            (lora_B): ModuleDict(
              (default): Linear(in_features=64, out_features=768, bias=False)
            )
            (lora_embedding_A): ParameterDict()
            (lora_embedding_B): ParameterDict()
          )
          (activation): Tanh()
        )
      )
      (dropout): Dropout(p=0.1, inplace=False)
      (classifier): ModulesToSaveWrapper(
        (original_module): Linear(in_features=768, out_features=60, bias=True)
        (modules_to_save): ModuleDict(
          (default): Linear(in_features=768, out_features=60, bias=True)
        )
      )
    )
  )
)
Model Training Parameters:
trainable params: 10761276 || all params: 120289656 || trainable%: 8.946135817364047
  0%|          | 0/2160 [00:00<?, ?it/s]  0%|          | 1/2160 [00:01<55:12,  1.53s/it]                                                  0%|          | 1/2160 [00:01<55:12,  1.53s/it]  0%|          | 2/2160
…
