…
wandb:  $ pip install wandb --upgrade
wandb: Tracking run with wandb version 0.16.3
wandb: Run data is saved locally in /scratch/afz225/nlp_assignment2/NLP702-Assignment2/wandb/run-20240313_225100-kth5gv7h
wandb: Run `wandb offline` to turn off syncing.
wandb: Syncing run silver-serenity-217
wandb: â­ï¸ View project at https://wandb.ai/afz225/huggingface
wandb: ðŸš€ View run at https://wandb.ai/afz225/huggingface/runs/kth5gv7h
******************** Normal Finetuning  ********************
BertForSequenceClassification(
  (bert): BertModel(
    (embeddings): BertEmbeddings(
      (word_embeddings): Embedding(30522, 1024, padding_idx=0)
      (position_embeddings): Embedding(512, 1024)
      (token_type_embeddings): Embedding(2, 1024)
      (LayerNorm): LayerNorm((1024,), eps=1e-12, elementwise_affine=True)
      (dropout): Dropout(p=0.1, inplace=False)
    )
    (encoder): BertEncoder(
      (layer): ModuleList(
        (0-23): 24 x BertLayer(
          (attention): BertAttention(
            (self): BertSelfAttention(
              (query): Linear(in_features=1024, out_features=1024, bias=True)
              (key): Linear(in_features=1024, out_features=1024, bias=True)
              (value): Linear(in_features=1024, out_features=1024, bias=True)
              (dropout): Dropout(p=0.1, inplace=False)
            )
            (output): BertSelfOutput(
              (dense): Linear(in_features=1024, out_features=1024, bias=True)
              (LayerNorm): LayerNorm((1024,), eps=1e-12, elementwise_affine=True)
              (dropout): Dropout(p=0.1, inplace=False)
            )
          )
          (intermediate): BertIntermediate(
            (dense): Linear(in_features=1024, out_features=4096, bias=True)
            (intermediate_act_fn): GELUActivation()
          )
          (output): BertOutput(
            (dense): Linear(in_features=4096, out_features=1024, bias=True)
            (LayerNorm): LayerNorm((1024,), eps=1e-12, elementwise_affine=True)
            (dropout): Dropout(p=0.1, inplace=False)
          )
        )
      )
    )
    (pooler): BertPooler(
      (dense): Linear(in_features=1024, out_features=1024, bias=True)
      (activation): Tanh()
    )
  )
  (dropout): Dropout(p=0.1, inplace=False)
  (classifier): Linear(in_features=1024, out_features=60, bias=True)
)
  0%|          | 0/2160 [00:00<?, ?it/s]  0%|          | 1/2160 [00:02<1:45:41,  2.94s/it]                                                    0%|          | 1/2160 [00:02<1:45:41,  2.94s/it]  0%|          | 2/2160 [00:05<1:30:50,  2.53s/it]  0%|          | 3/2160 [00:07<1:25:33,  2.38s/it]  0%|          | 4/2160 [00:09<1:23:01,  2.31s/it]  0
…
